model1_result.pt (torch, 347991 bytes, 21 tensors)

encoder.embedding.weight f4 [4115, 4]
000000 52 9c c6 bd 87 07 3a bf cc 7f 6f be 55 09 a4 3f
       -0.096977845 -0.72667736 -0.23388594 1.2815348
000010 f9 3b af bf 65 9b 74 bf 30 b7 38 bf 1d 85 bc be
       -1.3690177 -0.95549613 -0.7215452 -0.36820307
000020 97 98 58 3f 27 df 52 3f 1a ae 5c 3f f0 fb 64 bf
       0.84607834 0.82371753 0.8620316 -0.89446926
000030 99 13 01 40 3a 7b 98 bf 75 43 be 3c 10 15 6a 3f
       2.0168211 -1.1912606 0.023225525 0.9143839
000040 22 f2 9f be 4f ed fa be 23 bd cc 3f cc 7c 72 3f
       -0.3123942 -0.49009177 1.599522 0.94721675
000050 0b 55 5b be c4 ab 08 bf d7 3d 08 3e bd 8f 19 3f
       -0.2141916 -0.53387094 0.1330484 0.5998495
000060 81 f9 31 3f c4 42 0d bf 61 ee f1 be 9d 29 99 bf
       0.6952134 -0.5518 -0.4725218 -1.1965824
000070 3c d4 09 3f d1 aa b5 bf 75 d1 bf be bf 63 65 be
       0.5383947 -1.4192754 -0.3746449 -0.22401331
000080 3a ce d7 3f d7 a4 0d bf a9 f6 cc 3f 4e fc 01 3f
       1.685981 -0.5532965 1.6012775 0.5077561
000090 d0 52 38 bf 83 2b 93 3f e4 47 ae 3f 92 81 54 bb
       -0.7200136 1.1497654 1.3615689 -0.0032425863
0000a0 76 a0 9d be c0 d7 9b 3e 18 02 82 bf c3 ca 37 c0
       -0.30786484 0.30438042 -1.0156889 -2.8717506
0000b0 63 fc 67 bd 66 fe 83 bf 70 f5 00 bf e0 24 f7 be
       -0.05663718 -1.0312011 -0.5037451 -0.4827032
0000c0 91 4e 30 be 17 c6 1f bf 5c 04 15 3f 1a d8 2d 40
       -0.1721747 -0.62411636 0.58209777 2.7163148
0000d0 f0 69 14 3f 0b a3 e9 be 01 9a 72 bf 26 ac b8 3f
       0.5797415 -0.45632204 -0.9476624 1.4427536
0000e0 d0 0f 2f bf 7c 1c 96 3e f7 3f 8a bf ea 4d 0a 3f
       -0.683835 0.29318607 -1.080077 0.5402514
0000f0 ca 11 07 40 c7 d5 ca 3e fb cd 0b 3e 14 47 e4 bd
       2.1104608 0.39616224 0.13652794 -0.111463696
000100 ae c3 8c 3f f7 1d 7d 3c a2 e3 9d 3f 81 7e 8e 3f
       1.0997217 0.015449039 1.2335093 1.1132356
000110 c4 09 7e 3f a4 18 98 be 99 12 55 3f 2f 13 92 bd
       0.9923365 -0.297063 0.832315 -0.07132565
000120 69 51 65 3f 40 a1 5a 3e e3 fd 65 3f e7 88 79 3f
       0.8957735 0.21350574 0.89840525 0.9747452
000130 51 02 8e 3f 3f de de 3f e4 db ce 3f 5e 1b e5 3e
       1.1094457 1.7411574 1.6160855 0.44747442
000140 ca 71 0f 3f 82 60 79 3f 9c 56 8a bf d2 fc 96 be
       0.56033003 0.97412884 -1.0807681 -0.29489762
000150 ad 05 46 be f0 04 86 bf 92 7c b4 3f ed e7 39 3f
       -0.19338103 -1.0470257 1.4100516 0.72619516
000160 3d 50 3f bf 21 a8 f9 3e 90 a1 17 bf 8b 9a 5b bf
       -0.7473181 0.48761085 -0.592309 -0.8578269
000170 82 8a 41 be d9 75 b8 be 9b 31 9f 3e f2 c4 ad be
       -0.18900493 -0.3602741 0.31092533 -0.3393932
000180 03 6d d9 be 08 84 f4 3e e4 b7 2a bc f4 4a 3d bf
       -0.42465982 0.47756982 -0.0104198195 -0.73942494
000190 65 96 17 be db 9d 20 be 25 73 c3 be fa d5 bb bf
       -0.14803465 -0.15685217 -0.38173786 -1.4674675
0001a0 63 73 bb 3f 04 f1 3d bf f6 be 2d 3f ae 0a fb bf
       1.4644588 -0.74195886 0.6786951 -1.9612634
0001b0 3c 3b 1f 3f a0 94 19 bf d5 97 12 c0 aa 46 96 be
       0.6219976 -0.5999241 -2.290517 -0.29350787
0001c0 97 44 80 3f 75 5a 26 bf fc 76 91 be 19 76 26 3f
       1.0020932 -0.64981776 -0.2841109 0.6502395
0001d0 fc b4 b9 3f 72 db 06 bf ba 3d d4 3f 67 d2 38 bf
       1.4508357 -0.52678597 1.6581337 -0.7219605
0001e0 be 3a 45 bd 30 5d c8 3e 61 26 45 3e e9 07 be bf
       -0.048151724 0.39133596 0.19252922 -1.4846164
0001f0 2a a6 cb 3f 3f 21 0e c0 62 d5 15 3f 01 a5 e3 3d
       1.5910084 -2.2207792 0.5852872 0.11115456
000200 02 3e e5 3e 7c ee 00 3f 46 35 cb be b8 f9 98 bf
       0.4477387 0.503639 -0.39689082 -1.1951208
000210 ac 94 a0 3f e6 74 fc 3f db da d8 bf 44 b2 87 3f
       1.2545371 1.9723175 -1.6941789 1.0601277
000220 3d da 80 3c 38 86 96 3c 7f 97 97 3e 30 7e 15 be
       0.015729064 0.018374547 0.2960777 -0.14598918
000230 15 7c 9f bf 3a ea 2d bf e9 75 14 be dd b5 2a 40
       -1.2459742 -0.67935526 -0.14498104 2.66735
000240 b9 bb 26 3f 04 28 8d be 68 20 15 3e c9 5d 82 bf
       0.6513019 -0.27569592 0.14563143 -1.0184871
000250 0b 92 69 3f 9b 8c 38 bf f2 07 28 3f 28 23 22 3e
       0.9123847 -0.72089547 0.65637124 0.15833724
000260 22 2b 3e bf 3e 5c d5 bb 88 27 80 be e4 ef bd be
       -0.74284565 -0.0065112403 -0.2503016 -0.37097085
000270 b0 4a c3 bf 21 b6 2e bf bf 7e 0f bc 0f 88 cb be
       -1.5257168 -0.68246657 -0.008758246 -0.39752242
000280 99 1a 49 bf 6b e4 82 3f 4d 38 85 3f 58 12 a9 be
       -0.7855621 1.0225958 1.0407807 -0.33021808
000290 bf e9 d6 bf 48 ce 93 bf 5a 00 d6 3f 60 5c f3 be
       -1.6790084 -1.1547327 1.6718857 -0.47531414
0002a0 dc e9 8a 3f 46 36 db be a0 a7 8e bf a0 9d 3d 3f
       1.0852618 -0.42814845 -1.1144905 0.7406864
0002b0 f1 50 82 bf 28 2d d6 bf 28 b5 bd bd e9 58 41 bf
       -1.0180951 -1.673253 -0.092630684 -0.7552629
0002c0 ad 26 34 bf ca 69 19 be 91 18 8f bf f2 dd 70 3f
       -0.70371515 -0.14981762 -1.1179372 0.9408866
0002d0 5f 05 a4 3f 3b 09 cd be 73 2a d4 bd 0b 8c cf 3e
       1.2814139 -0.40046105 -0.10359659 0.40536532
0002e0 47 4d 24 3f 6f 7d a1 3f 7a be c4 3f 54 40 7c 3c
       0.64180416 1.2616404 1.5370629 0.015396196
0002f0 90 c1 91 be ed 11 9d bd 9e 71 8d bf 5d 4b ff 3d
       -0.2846799 -0.07669435 -1.1050298 0.12465546
000300 63 3d f1 3e f9 7e 53 3f 1e 1a 3b be fb c4 bb be
       0.47117147 0.8261562 -0.18271682 -0.36673722
000310 c4 0f 1f 3e c6 a2 bf be 82 63 d3 bf 5a ec 4c bf
       0.15533358 -0.37428874 -1.6514742 -0.80048144
000320 8b 02 7c 3d 5b 03 9c bd 2d af c0 bf b5 09 7c be
       0.061525863 -0.076178275 -1.505346 -0.24613078
000330 a1 8c ec 3e f7 e7 a6 3f 45 9e 10 40 24 a8 78 3f
       0.4620104 1.303954 2.25966 0.9713156
000340 1c dd cf be f7 39 e4 be 8d d1 db 3f 1d 07 b8 bd
       -0.4059838 -0.44575474 1.7173325 -0.08985732
000350 73 d3 c7 3e 31 9b aa bf 12 04 28 3f 68 a6 8b 3f
       0.3902851 -1.3328611 0.6563121 1.0910158
000360 0d 76 fe be 98 c4 51 bd 47 5a 1d 3f cd ed 98 3e
       -0.4969944 -0.051212877 0.6146588 0.29868928
000370 13 08 fc 3f b4 5c 29 3e b1 4d 36 3f c9 5a 9f 3e
       1.9689964 0.1653927 0.712123 0.3112395
000380 3a 9f 61 be 18 b1 b2 bd b5 78 4a bf d2 40 63 bf
       -0.22033396 -0.08725184 -0.79090434 -0.8877078
000390 e0 69 66 bd 6f e6 84 3f 7f 30 f7 be 7a 0a 98 3e
       -0.056253314 1.0382823 -0.48279187 0.29695493
0003a0 da 6c 6e 3f e9 01 92 3e f3 b8 51 3e cd 15 b4 be
       0.93134844 0.28517082 0.20480709 -0.35172883
0003b0 57 7b b9 bf 19 59 60 be 07 14 8b 3f ab 73 b1 3e
       -1.4490765 -0.21908988 1.0865487 0.3465856
0003c0 a1 a7 30 3d a6 76 3d bf 5a a6 54 3f 77 43 5b 3f
       0.043128613 -0.7400917 0.8306633 0.8564982
0003d0 5b c0 ab 3e 13 97 c6 3f 0a da 11 c0 e3 05 c7 3f
       0.33545193 1.5514854 -2.278933 1.5548671
0003e0 d2 6e 17 3f f3 63 fb be c6 cc 7b 3f 85 7f 4c bf
       0.59153473 -0.49099693 0.98359334 -0.7988208
0003f0 5f e2 a8 3d 7d c2 49 bf a0 8e 98 3f cf 9e e4 be
       0.08246302 -0.7881239 1.1918526 -0.4465241

encoder.rnn.weight_ih_l0 f4 [24, 4]
000000 e2 f0 a4 bd e2 c4 8d 3e 47 7e 32 3d 19 ed 45 be
       -0.08053757 0.27689272 0.04357746 -0.19328727
000010 db bb 38 3e 69 22 51 3d e4 42 8b 3c 64 87 93 3d
       0.18040411 0.051058207 0.01699967 0.07203558
000020 9d c1 79 3e 99 22 1f be 6e aa 30 3e 76 f9 1b 3e
       0.24390264 -0.15540542 0.17252514 0.1523188
000030 71 91 67 be 9f 05 5b be 6d 93 55 3e ed 0a 89 bd
       -0.22614075 -0.21388863 0.2085702 -0.06691537
000040 56 ac 02 3e c0 28 aa 3d a8 3c 11 be bd 28 34 be
       0.12761053 0.08308554 -0.14183295 -0.17593665
000050 57 1a 7f 3e 38 2c c6 bc 10 da cd bd 27 08 af 3d
       0.24912392 -0.024191007 -0.10051358 0.08546477
000060 ba e7 7f bd b2 ac 46 3e 7e 9d 1e 3d 9b 9a 29 be
       -0.06247685 0.19401816 0.038724415 -0.16562884
000070 53 5d fe 3d d0 66 7c 3e af 59 50 be da df 64 be
       0.12420144 0.24648595 -0.20346712 -0.22351018
000080 f5 13 3a be dc 64 d6 3b a2 75 b6 be 5f 8f 0c be
       -0.18171676 0.006542785 -0.35636622 -0.13726567
000090 8f 22 0e 3e 92 cf a9 bc 95 d0 df be 0c d1 55 be
       0.1388037 -0.02072886 -0.43713823 -0.20880526
0000a0 76 2c b7 be 69 c2 8e be 7a 72 c5 be 29 e8 65 bd
       -0.35776109 -0.27882698 -0.385639 -0.05612961
0000b0 78 92 72 bd 5a fa 88 b9 4e 53 5b 3d 13 b6 88 3e
       -0.059221715 -0.00026126468 0.053546242 0.26701412
0000c0 15 05 5c bd 7c 6c ea bd 98 f2 4b bd bf 57 0a be
       -0.053715784 -0.11446473 -0.049791902 -0.13510035
0000d0 13 db 65 be a6 2d 1f 3c d1 ec 73 be 23 50 7b ba
       -0.22446851 0.009715473 -0.23820807 -0.00095868314
0000e0 a7 56 ce be b2 39 be bd 3e 7f 03 3d 9b 3f 09 be
       -0.40300485 -0.09288348 0.03210377 -0.1340317
0000f0 4c 20 5a bd 98 40 55 be 4f c6 b8 bb 03 43 ce be
       -0.053253457 -0.20825422 -0.0056388746 -0.402855
000100 55 0f 0a be 2a 13 50 be a3 49 b8 3e 3c cf 5b be
       -0.13482411 -0.2031981 0.3599368 -0.21465772
000110 36 88 e7 bd 96 0a 55 3e c2 43 e1 be 66 e3 da bd
       -0.11305277 0.2080482 -0.43997008 -0.10687904
000120 df 5f a0 3e ce 99 b3 bd b8 1e e0 3e f9 9a fe bd
       0.31323144 -0.0876957 0.43773437 -0.124319024
000130 b8 6d a8 3e c4 b7 1a bd 65 02 b4 bc a3 56 1d be
       0.3289621 -0.03777291 -0.021973798 -0.1536508
000140 d8 c1 bf 3e 4a 46 8b be fd 7e dc 3e 36 62 1a be
       0.3745258 -0.27202064 0.43065634 -0.15076527
000150 74 7a e3 3d 84 33 e7 3d 2f 80 a4 bb 28 78 21 3d
       0.111073405 0.11289123 -0.0050201635 0.03942123
000160 16 c4 af 3e 4e 97 a6 3d 42 81 00 be 4e a7 4c 3e
       0.3432929 0.08134328 -0.12549308 0.19985697
000170 a4 dc 89 3c 74 73 a7 3d 05 1a 9b 3d 5e 79 67 3e
       0.016828842 0.08176318 0.07573322 0.22604892

encoder.rnn.weight_hh_l0 f4 [24, 8]
000000 b7 88 68 3e 96 24 80 bd 42 a5 23 3e 88 11 b2 3e
       0.22708403 -0.06256978 0.1598101 0.34779
000010 c7 a3 9f bd 98 56 b4 3c e4 41 91 3d 28 14 8f 3e
       -0.0779491 0.022013947 0.07092646 0.27945065
000020 a9 19 4a 3d 70 c4 84 be 52 ff 1c bd 66 c2 a2 3d
       0.049340878 -0.2593112 -0.03832943 0.07947235
000030 be a0 46 be d7 bb 4b 3e 23 0b 20 3d 40 4e 25 3e
       -0.19397256 0.19895874 0.03907312 0.16143131
000040 93 39 4e 3e 38 51 86 be ca 72 0e be 03 41 24 3d
       0.2013915 -0.2623384 -0.13910976 0.040101063
000050 2e cf 7a 3c ce 69 e0 3e 5a e9 de 3d 6b e7 23 bd
       0.015308185 0.43830723 0.10884352 -0.04001562
000060 4f 9c a0 3e 03 09 ac be f3 20 63 bd 08 7d 01 3d
       0.31369254 -0.33600625 -0.055451345 0.03161338
000070 d9 87 d7 bd 66 7f af 3e 2b 00 53 bd fa a6 80 3e
       -0.10523958 0.34276885 -0.051513832 0.25127393
000080 ee f4 de 3d cf 98 12 be 92 6d 9c 3e 1a 1d 77 bd
       0.108865604 -0.14316104 0.30552346 -0.060330488
000090 8e 1a 78 3e eb 08 2d 3d 3a 18 3e 3e cf b8 96 3e
       0.2422888 0.042244833 0.18563929 0.29437873
0000a0 9f 15 e6 3e e2 21 ee 3d 20 55 a1 3e 84 7d 4e 3e
       0.4493837 0.116275564 0.31510258 0.20165068
0000b0 d2 19 9a 3e ba 2b 25 3e 64 7b 32 be 58 93 83 bd
       0.30097824 0.16129962 -0.17429882 -0.06424588
0000c0 3b ee e5 3d 0c 20 b0 be f1 2d 8e 3e c7 51 63 3e
       0.112270795 -0.3439945 0.27769426 0.22199164
0000d0 07 0a db 3c a1 a5 62 3e c6 01 cb 3d 78 1c 90 be
       0.02673818 0.22133495 0.09912448 -0.2814672
0000e0 80 b6 24 bd d8 90 b0 be c3 84 a2 3e a3 6d 86 3e
       -0.040213108 -0.34485507 0.31741914 0.2625552
0000f0 6f e1 d4 3e dc 2f ed 3c 87 f7 80 3e 65 47 eb bd
       0.41578242 0.028953485 0.25188848 -0.11488227
000100 8d 4a 1d be 60 36 f3 3d b2 49 97 bd 27 da cb 3d
       -0.1536047 0.118756056 -0.07387103 0.09953719
000110 cf 9f 91 bd 39 95 fa bd da 14 6f bb 6e 52 77 3e
       -0.07110559 -0.12235493 -0.0036480934 0.24152538
000120 58 e4 ee 3e de e8 fb be 04 a1 ba 3e 0a a1 bb be
       0.46658587 -0.492011 0.3645097 -0.366463
000130 cd 1e 06 3e 80 42 3c 3e 4b 1a cb bc 09 5d 07 3e
       0.13097687 0.18384743 -0.02479281 0.13219084
000140 ff a9 cb 3e 33 e8 cc be 73 37 eb ba ad 7a c7 bd
       0.39778134 -0.40020904 -0.0017945602 -0.097401954
000150 bf 85 2b 3e 49 28 cc 3b 3f 2c a9 bd c6 86 13 3c
       0.16750239 0.0062303883 -0.082603924 0.0090043
000160 bb 6f 65 be da 7f 78 bd 41 6d 73 be c5 5d e1 3c
       -0.22405903 -0.060668804 -0.23772146 0.027510533
000170 63 41 70 3e 7a b1 19 3e 48 b7 bc bd ab 71 22 be
       0.23462443 0.15009108 -0.092146456 -0.15863673
000180 2a 3e b8 bd d5 2f 7d 3e 5a 75 b4 3d 26 71 db be
       -0.08996232 0.24725278 0.088114455 -0.42859763
000190 1c 23 98 3e 66 24 fd bd 12 f9 0b 3d b3 76 ed be
       0.29714286 -0.12360458 0.03417308 -0.46379623
0001a0 01 77 66 3d 1d 21 d8 bb 3c 0e ef 3d 29 ff 85 be
       0.056265835 -0.0065957443 0.11672637 -0.26171234
0001b0 6b 87 83 3d 5c c7 45 3e 36 48 38 be d5 b6 b3 bd
       0.06422313 0.19314331 -0.17996296 -0.08775107
0001c0 d0 1b b3 be 31 9e 32 be 8c 95 8b be 75 78 32 3e
       -0.34982157 -0.17443158 -0.27262533 0.17428763
0001d0 e8 c2 96 be 11 43 89 3e f6 df 89 3e 91 4e 48 bd
       -0.29445577 0.2680898 0.2692868 -0.04890305
0001e0 68 5d 92 bc 31 d7 74 be a5 a9 81 3c 9e cb a0 bd
       -0.017866805 -0.23910214 0.015827963 -0.07851337
0001f0 04 e6 ce 3d 72 ef 7b 3e 50 45 be 3e a1 fc 17 bd
       0.10102466 0.2460306 0.37162256 -0.03710616
000200 c9 e7 0d bd d7 90 89 bd a3 1b 41 be 8e 5c b8 bd
       -0.034644876 -0.06717079 -0.18858199 -0.090020284
000210 7d 0e 9e 3d ca 0e ed bd 44 8b c0 3e 20 eb 01 be
       0.07717607 -0.115750864 0.3760625 -0.1268735
000220 55 0b 35 be 2b b4 e4 3e 36 c7 fb bd 62 de 28 3d
       -0.17680104 0.44668707 -0.12293856 0.041227706
000230 3e 2b 28 3e 20 47 8b be 94 c0 c0 3d 3f 39 10 3e
       0.16422746 -0.27202702 0.09411731 0.14084338
000240 18 fd dd 3e e3 70 d4 3c 8f f1 87 bc da e4 a5 bd
       0.43357158 0.025932735 -0.016594676 -0.081002906
000250 8b 1d 40 be d9 79 f7 3e 91 0f a4 bd 26 d4 db 3a
       -0.1876127 0.4833515 -0.080107816 0.0016771599
000260 c9 10 00 be fa 52 94 be cf aa 92 3d 25 7c c4 3c
       -0.12506403 -0.28969556 0.071614854 0.023984978
000270 4c ce a5 3e 7a ee 3a 3b 4a d0 80 3e 40 19 aa 3e
       0.32383955 0.002852349 0.25158912 0.3322239
000280 d0 1e d1 3e e3 42 c1 be 44 e1 ea 3e ed fe 82 3b
       0.4084382 -0.37746343 0.4587499 0.0039976747
000290 2e 05 cc bb c8 78 23 bd ac e8 f7 3d e3 2f 50 3d
       -0.0062262034 -0.039910108 0.121049255 0.05082692
0002a0 3b 1c a5 bd ff 98 c9 be 0b 37 8a 3e 47 9d 4f 3e
       -0.08062025 -0.3937454 0.2699512 0.2027484
0002b0 0e 2d 5a 3e d3 38 3d 3e 5e c2 2f be ae d6 3f 3e
       0.2130625 0.18478708 -0.17163989 0.18734238
0002c0 b5 78 ee 3e 6c 96 85 be 10 75 a8 3e e5 f2 46 3e
       0.46576467 -0.26091325 0.32901812 0.19428594
0002d0 4c 43 7e 3e c1 34 bd 3e 32 82 0c bd 6a 19 09 3e
       0.24830359 0.3695431 -0.03430385 0.13388601
0002e0 4a c9 cf 3e 5f d5 13 be 0c 87 bb 3e cb 2e 98 3e
       0.4058326 -0.14436863 0.3662647 0.297232
0002f0 41 c1 73 bc 1e b3 ea 3e 4d ed 99 3d e3 b4 43 bd
       -0.014877618 0.4583978 0.07515965 -0.04777993

encoder.rnn.bias_ih_l0 f4 [24]
000000 8d a8 41 bd 8d f6 02 3f a8 a7 de 3e ac f7 58 be
       -0.047279883 0.51157457 0.43487287 -0.2118823
000010 84 cb fb 3e d1 d6 1d 3e 84 48 34 bd 66 8b b5 3e
       0.49178708 0.15413977 -0.04401447 0.35457915
000020 26 42 9c bd 25 57 45 be 10 88 9a be ff 99 89 3d
       -0.07629804 -0.19271524 -0.30181932 0.067188255
000030 a4 11 e3 bb dc df 88 be cd 21 1d 3e 8d a9 a3 3e
       -0.006929593 -0.2673329 0.15344925 0.31965294
000040 50 07 ad 3e 70 a9 c0 be a5 75 81 3e e1 f5 fb 3e
       0.33794641 -0.3762927 0.25285068 0.49211028
000050 16 38 0a 3e c4 f0 e5 3e e2 bc db 3e 5b 87 b4 3e
       0.13497958 0.44910252 0.42917544 0.35259518

encoder.rnn.bias_hh_l0 f4 [24]
000000 4a 16 a7 3e cf 80 5a 3e 32 eb 1e 3e 60 12 95 bd
       0.32634193 0.21338199 0.15519407 -0.072788954
000010 0a c0 e9 3e 43 7c a3 3d e8 2a a3 3e a3 9b 31 3e
       0.45654327 0.079826854 0.31868672 0.17344527
000020 03 a2 e0 3d 9d 79 c1 be 95 45 e0 3d d3 f0 60 be
       0.10968401 -0.37788096 0.10950772 -0.21966867
000030 39 c9 df be 30 70 9a be c9 0c 7b bc bd 1e 98 be
       -0.43708208 -0.30163717 -0.015322872 -0.2971095
000040 a8 05 b8 3e 54 3b 91 be b3 8f a1 3e e8 87 bb bc
       0.35941815 -0.28365576 0.31554946 -0.022891954
000050 87 0d 23 3e ef e7 48 3d a6 4d ca bd 8d 33 32 be
       0.15923129 0.049049314 -0.098780915 -0.17402478

encoder.rnn.weight_ih_l0_reverse f4 [24, 4]
000000 7f 2e 55 be 50 9b 34 be 58 30 a6 bd b7 bc 17 3e
       -0.20818518 -0.17637372 -0.081146896 0.14818083
000010 44 31 4b 3e 35 fd 94 be 32 91 a7 3d 76 b6 bc bd
       0.19843012 -0.29099432 0.08181991 -0.09214489
000020 ae 14 aa bd 20 a7 85 3d 0a 01 8c be 81 db db 3d
       -0.083047256 0.06526017 -0.27344543 0.107352264
000030 6e 76 27 be 72 a3 64 3e ad f0 56 bd 7e 6a 4a be
       -0.16353771 0.22327974 -0.05247562 -0.19767186
000040 97 0e 29 be 8c e3 6c 3d 3f 43 44 be 80 4c 60 be
       -0.16509472 0.057834193 -0.19166277 -0.21904182
000050 d5 15 2f 3e 18 6e 95 3d 81 49 58 be 45 ac c2 3e
       0.17098172 0.07296389 -0.2112179 0.38022056
000060 6a dc 1b bd f5 aa 83 3c 39 1c a8 be b6 66 be 3c
       -0.038052 0.01607273 -0.32834032 0.023242336
000070 a9 d4 6e 3e 00 59 6b be e5 1f a1 3e a2 c8 4a 3e
       0.23323311 -0.2298317 0.31469646 0.19803098
000080 ed 96 c2 3d 03 26 04 be dd 56 31 3e 6f 7e 1b 3e
       0.09501443 -0.12905125 0.17318292 0.1518495
000090 b4 03 81 bd c8 50 6c 3e cf fc f0 be 0a 7d 3a be
       -0.062995344 0.2307769 -0.47067878 -0.18211761
0000a0 1f ce df 3e 67 e4 5b be 3b ae 18 bd d0 b9 f9 3d
       0.43711945 -0.21473847 -0.037275534 0.12193644
0000b0 df 0d 5f be 56 31 a4 3d 38 ea 84 be 47 09 aa bd
       -0.21782635 0.080172226 -0.25959945 -0.08302551
0000c0 2b fc 11 3e 05 1e 48 bc 91 2c 36 3e 0e 20 df bd
       0.1425635 -0.012214188 0.17790438 -0.10894786
0000d0 cb 2c 7b be f3 2a aa 3e 2f 9d c0 3e c8 fa 3a 3e
       -0.24528806 0.33235893 0.37619922 0.18259728
0000e0 4c 88 2c bc 77 2d 42 3d 30 67 2e be 72 31 a4 3c
       -0.010530543 0.04740664 -0.1703155 0.020043109
0000f0 bc 2d ea be 49 c6 e4 3e 4a f2 91 be 04 8e 8a 3d
       -0.45738018 0.4468253 -0.28505164 0.067653686
000100 59 25 a6 bd 24 3a 92 bc 0e e0 bf 3c 0b fa 2e 3c
       -0.08112592 -0.01784999 0.023422267 0.010679732
000110 0b 9a ad bd 13 5b a1 3d 45 f9 13 be f4 df 42 be
       -0.08476647 0.07878699 -0.14450558 -0.19030744
000120 74 d9 80 3e 93 ec ed bd dc 99 38 be b7 16 af bd
       0.25165904 -0.116173886 -0.18027443 -0.085492544
000130 32 30 29 be 87 dd c2 3e 91 50 a7 be 90 6b 0f 3d
       -0.16522291 0.38059637 -0.32678655 0.03501469
000140 bb 4a fb bd 2f d3 18 3e 56 9e 01 be 93 fd 23 be
       -0.12270113 0.1492431 -0.12658057 -0.160147
000150 42 bd 9d 3e 39 37 17 be 1a 65 ec bd 70 1a b8 bd
       0.30808455 -0.1476716 -0.11542721 -0.089894176
000160 fc d0 cb 3c 81 34 10 be 36 cc 50 be 12 60 10 be
       0.024879925 -0.14082529 -0.203904 -0.14099148
000170 09 7c ed 3e 48 4e ee be 79 31 de 3d 54 b8 f3 bd
       0.46383694 -0.465441 0.1084928 -0.11900392

encoder.rnn.weight_hh_l0_reverse f4 [24, 8]
000000 5f c3 f7 3e 5f 28 46 3e 2d b2 87 be 70 b2 fa bd
       0.48391244 0.19351338 -0.26503125 -0.122410655
000010 69 ff a2 bd 4f 8c c1 3e 98 55 53 bc cb 89 c9 3e
       -0.07958872 0.3780236 -0.012898825 0.3936294
000020 fc bd e8 3e 0d 92 ad be 07 d4 fc be 31 8a 91 3a
       0.45457447 -0.3390049 -0.49380514 0.0011103806
000030 7c 4e 15 be 67 e6 32 bc a7 78 cb bd d7 26 5d 3d
       -0.1458072 -0.01091919 -0.09935122 0.05399212
000040 5a a1 62 3e 17 7a 8f bc e4 92 ca be a1 34 df bc
       0.22131863 -0.017514272 -0.39565194 -0.027246775
000050 3f f6 44 be 63 2b 10 bd 0a 56 e8 3d 50 9b f0 3d
       -0.1923456 -0.035197627 0.11344536 0.117483735
000060 a5 fb 4a be 69 9b 8f bd d0 5f c1 be 44 19 c9 3d
       -0.19822557 -0.07012064 -0.37768412 0.09819272
000070 65 16 51 3e fa 9d 73 3e ad 61 61 3e ec d4 0f 3f
       0.20418699 0.23790732 0.22009917 0.5618427
000080 f5 2b d9 3e 0b 9c f4 bd 07 0e 0b 3e e5 aa f7 bd
       0.4241635 -0.11943825 0.1357957 -0.120931424
000090 1b 3d 8a be 23 0f af 3d 14 f9 b6 be f9 9f 67 3e
       -0.26999745 0.08547809 -0.35736907 0.22619618
0000a0 65 d4 4c 3e 4d 44 8e be d5 7f 74 be 78 25 02 be
       0.20002897 -0.27786484 -0.23876889 -0.12709606
0000b0 4f e0 f2 bd bc fb bc bc 85 b6 4f 3d 67 57 8f 3e
       -0.1185919 -0.023069255 0.050711174 0.2799637
0000c0 aa 2e 77 3e 50 96 f2 be 5e 94 ea bb e6 0e 29 be
       0.24138895 -0.47380304 -0.0071588 -0.1650959
0000d0 7e e1 40 be 23 5e 9a 3e 39 b4 e5 3d 38 a9 85 be
       -0.18836018 0.30149946 0.11216015 -0.26105666
0000e0 a7 23 f7 3e 37 d7 74 be 87 06 e8 bd de 08 73 bd
       0.48269388 -0.23910223 -0.1132937 -0.05933463
0000f0 fc 69 19 bd 53 3b 02 3e 09 f1 a7 3d 0c d3 b4 3c
       -0.03745459 0.12717943 0.08200271 0.022073291
000100 1f d7 0c 3e ff 87 d0 bd c4 5f b2 3d 34 42 a1 3e
       0.13753937 -0.10182189 0.08709672 0.3149582
000110 ae 3c 3c be 49 3c 23 3d b5 ec 82 be 7b dd 09 bf
       -0.18382522 0.039852414 -0.25571218 -0.5385358
000120 b5 23 4d bd ae 1e a7 be 46 19 9d be 6c 38 cb 3d
       -0.05008288 -0.32640594 -0.30683345 0.09922871
000130 6e b8 30 3d 44 fb c9 bd 8f 88 36 be 87 92 a3 3d
       0.043144636 -0.09862378 -0.1782553 0.07986932
000140 cd 72 27 3e bb 53 88 bd 6e 92 3a bc f1 95 89 3e
       0.16352387 -0.06656595 -0.011387451 0.2687221
000150 94 0f 10 be 14 2b 1e 3e 94 c0 4e 3e 7e 89 6e 3e
       -0.14068443 0.1544612 0.2019065 0.23294637
000160 d6 cd 1f 3e 4d 70 df bc cc 16 3a be 21 c2 02 be
       0.15605864 -0.027275229 -0.18172759 -0.12769367
000170 bb 2f 77 3b c8 60 12 be 7f f5 88 3e c3 44 ab 3e
       0.0037717659 -0.14294732 0.267498 0.334509
000180 52 a8 b8 be b9 bd 8d 3e 57 ea 89 3e 75 6b cf 3c
       -0.36065918 0.2768381 0.269366 0.025319794
000190 32 68 3b 3e 5f 96 01 bf c3 7c 26 3e 30 b4 b2 bd
       0.18301466 -0.50620073 0.1625853 -0.08725774
0001a0 18 f8 9c bd 9b f6 c0 be 25 0c 23 bd ad 66 6f be
       -0.07664508 -0.37688145 -0.039806504 -0.23379011
0001b0 db f2 9f 3d d4 fb ba 3d f3 0f cc 3d 26 19 f1 3e
       0.07809993 0.09130064 0.099639796 0.470895
0001c0 61 57 a5 be 24 63 c6 3d 29 28 d0 be a1 94 9e bd
       -0.32293227 0.09686878 -0.4065564 -0.077431925
0001d0 6f 76 b0 3d 44 0a be bd 45 45 bb be e3 c9 72 be
       0.086163394 -0.09279302 -0.36576286 -0.23709826
0001e0 71 8d 14 be 6d 67 98 be 43 39 27 be 8e 9d 08 3e
       -0.1450708 -0.29766408 -0.16330437 0.13341352
0001f0 0b 17 04 be 91 ad fb 3d 51 a6 75 3c e4 b2 16 3e
       -0.12899415 0.122889645 0.014993266 0.14716679
000200 c2 2c 9a 3e 11 4c b9 be 83 30 d2 bc 4f 8e 8d be
       0.30112273 -0.36190847 -0.025657898 -0.27647635
000210 b2 fd a8 be 2e 23 2a 3e 04 80 c8 be a2 c5 8c 3e
       -0.33006054 0.16614982 -0.39160168 0.27494532
000220 5c 02 c8 3c 08 6a b3 3e 3a 9e d5 3e e8 6d ed 3e
       0.024415188 0.35041833 0.4172228 0.46372914
000230 47 25 f3 3e d1 21 f5 3c 2d bf a6 3e 3f c5 a1 be
       0.47489378 0.029923351 0.3256773 -0.315958
000240 8a 3a 96 3d 7d 60 56 3e 01 0b 20 be 99 aa a7 bb
       0.07335384 0.20935245 -0.15629198 -0.0051167724
000250 86 09 ec bc 63 c2 1d 3c 52 4a d5 3e 72 27 5d 3d
       -0.028813135 0.009628865 0.41658264 0.053992696
000260 28 ee ce be 4c 97 48 3e 8e 5b 3b 3e 33 bf 93 3e
       -0.40416074 0.19588965 0.18296644 0.2885681
000270 37 61 b8 bd 43 82 8d bd 37 5c 58 3e e5 16 fb be
       -0.09002917 -0.06909611 0.21128927 -0.49040905
000280 d6 a9 cc bc e6 2e aa bd 5b 2a d0 3e 9c 92 af 3e
       -0.024983328 -0.083097264 0.40657315 0.34291542
000290 cf 9b 7c 3e 91 fa b5 be aa f9 de 3e f2 f0 a8 be
       0.24668811 -0.3554273 0.43549854 -0.32996327
0002a0 7f 68 d7 3e 9e 1a d9 bd 88 27 a2 be eb 69 9c 3d
       0.42071912 -0.1060078 -0.31670785 0.0763739
0002b0 8e 47 db be 66 f2 b2 bd 4c a8 04 be 29 67 89 3e
       -0.4282803 -0.0873764 -0.12954825 0.26836517
0002c0 0b a1 06 bf c9 45 20 3e 82 42 85 3e da ee 9f 3e
       -0.5258948 0.15651621 0.26027304 0.31236917
0002d0 e2 77 ed 3e 98 cd 0e 3e 21 a4 e4 3e cd 23 18 bd
       0.46380526 0.13945615 0.4465647 -0.037143517
0002e0 ff f1 b9 3e e7 01 e1 bd b6 88 4f be 4c 57 2d 3d
       0.3631744 -0.10986691 -0.20266995 0.04231958
0002f0 dd b5 f2 3d 60 ac 36 bd b9 7b fc be 25 43 03 3e
       0.11851094 -0.044597983 -0.49313143 0.12818582

encoder.rnn.bias_ih_l0_reverse f4 [24]
000000 c7 70 3c be 9c ed 0c 3e eb 2a 7c 3e c3 31 89 3d
       -0.18402396 0.13762516 0.24625747 0.066989444
000010 4e ac 0a ba 4f 02 ef bd 9c 0b ef 3d 05 53 a1 bd
       -0.00052899576 -0.11670362 0.11672136 -0.07877163
000020 68 ed a6 be 50 f1 73 be 57 f6 80 3d ee 5d 28 be
       -0.32603002 -0.23822522 0.062969856 -0.16442081
000030 83 c3 08 3e 1c d9 fa bd d0 7c 94 bd b9 24 a3 3d
       0.13355832 -0.122484416 -0.072503686 0.07965989
000040 2d 36 de 3e 82 93 b1 be fb 7b 34 be 03 c7 93 be
       0.43400708 -0.34682852 -0.1762542 -0.2886277
000050 fd f7 d3 be e8 b6 f9 3e 94 76 c5 be 49 49 ff 3c
       -0.41400138 0.4877236 -0.3856703 0.031162875

encoder.rnn.bias_hh_l0_reverse f4 [24]
000000 e8 fe cd 3e d8 b5 fd 3a d6 9b 92 3e 92 24 98 3e
       0.4023354 0.0019356562 0.28634518 0.297154
000010 17 65 ce 3e fa c7 ff bd a6 75 f4 bd a1 66 31 3e
       0.403115 -0.124893144 -0.11936502 0.17324306
000020 a5 fc 83 bc 5e 19 80 3d ee e1 09 be 2e f0 75 3c
       -0.016111681 0.062548384 -0.13465092 0.015010877
000030 34 04 aa 3c e3 50 33 bc ab 32 76 bd 92 13 26 3e
       0.020753957 -0.010944578 -0.060106914 0.16218403
000040 94 10 1a be ab 2b 3a be 80 7a 9b be 8d de ef bd
       -0.15045387 -0.1818072 -0.30366898 -0.1171237
000050 c6 ce 51 be d6 bd 94 3e 83 b7 f5 bd 23 3a 40 3e
       -0.20489034 0.29051083 -0.11997893 0.18772177

encoder.fc.weight f4 [8, 16]
000000 ae a2 0d be ef 70 78 3e 25 58 37 be de 83 b6 be
       -0.13831589 0.24261831 -0.17904718 -0.35647482
000010 99 a7 93 bd ef f9 7c be ad b5 ab bd 9b 78 9e be
       -0.07209701 -0.24704717 -0.08384261 -0.3095139
000020 ed 8e c0 bd b1 f4 13 3e 24 0c cd 3d 67 7a d6 bd
       -0.09402261 0.14448811 0.10012081 -0.10472565
000030 da 53 4b 3e 46 c3 93 be 05 bf 78 3e 9f 50 11 3e
       0.19856206 -0.2885992 0.24291618 0.14190911
000040 27 88 5f be 7b 11 0a 3e 3e 44 72 3e 67 25 8b 3e
       -0.21829282 0.13483231 0.23658845 0.27176973
000050 3a a8 e6 bd 51 8c b6 3d 76 a4 4e 3e 11 b3 c1 3d
       -0.112625554 0.08913482 0.20179924 0.09457982
000060 b5 4a 5a 3d e1 9d 5f be 88 d4 21 bd a6 43 43 bd
       0.053293902 -0.2183757 -0.039509326 -0.047671936
000070 08 b2 26 be 5c b9 99 3e c0 ed 4e be c7 95 2b bd
       -0.16278851 0.3002423 -0.20207882 -0.041890886
000080 e4 7b 20 3d 86 70 f6 bd 76 f5 98 be 99 3c 8b be
       0.03918065 -0.12033181 -0.29874772 -0.2719467
000090 28 0a 2b be 51 f8 1a 3e 43 44 78 3d b9 0b d6 3d
       -0.16703093 0.15133788 0.060611974 0.10451455
0000a0 26 1d 53 be a5 e7 eb bc 79 0b 3c bd 5d 8d a0 3d
       -0.20616588 -0.02879698 -0.04590938 0.07839463
0000b0 90 7c 68 3d da 82 e4 3c bb 7f b1 bd 37 93 11 3d
       0.056759417 0.027894426 -0.08666941 0.035540786
0000c0 00 e7 39 3e a8 75 b0 bd 31 91 df 3c 3e d6 c7 bd
       0.18154526 -0.08616191 0.027290912 -0.0975766
0000d0 b6 8b b1 bd 3c ca 27 3e 4f 2d 10 be 31 a3 19 3e
       -0.08669226 0.1638574 -0.14079784 0.15003659
0000e0 07 b2 6e be 52 21 6c bd 91 90 64 3e 90 fd 8f 3e
       -0.233101 -0.057648964 0.22320773 0.2812314
0000f0 ad c5 3a 3e 0b ea e5 bd 22 d0 5b bd ad 31 bd 3d
       0.1823947 -0.11226281 -0.053665288 0.092379905
000100 40 78 34 3e 77 19 1a be 3f 23 d7 bd 0a f3 12 3e
       0.17623997 -0.15048777 -0.105047695 0.14350525
000110 69 21 ad bd 85 52 9f 3e 32 bb 79 3c 28 6d 9c 3e
       -0.08453638 0.31117645 0.015242385 0.3055203
000120 42 75 9b 3e 4b b8 5e be ef 56 f8 bd 48 05 3b be
       0.30362898 -0.2174999 -0.12125956 -0.18263733
000130 6f 1e ee bd 87 d1 00 be 31 8f a5 3d 66 d4 2f be
       -0.116268985 -0.12579928 0.08083952 -0.17170867
000140 e7 a1 0e 3d f9 79 4f 3c 1c 45 89 3e 02 3c 75 3e
       0.03482237 0.012663358 0.2681054 0.23948672
000150 eb d2 7b 3e 16 80 a4 3d b5 01 6c 3d 3b 8e a8 3d
       0.24592178 0.08032243 0.057618815 0.08230253
000160 46 94 34 3e c9 d3 cb bc 35 11 32 be 6f e0 8b bd
       0.17634687 -0.02488126 -0.17389376 -0.06829917
000170 f1 06 2c 3d 0c 64 b8 3d 51 54 af be 32 d4 80 3e
       0.041998807 0.090034574 -0.34244016 0.25161892
000180 c5 6d 80 bd 43 1f 18 3c 60 d0 3e 3d 37 44 94 bc
       -0.06270937 0.009284797 0.04658544 -0.018098934
000190 b7 3a 57 3e 8d af 26 3e d0 ca cf 3d be 00 d7 bd
       0.21018492 0.16277905 0.10146105 -0.104981884
0001a0 65 3e 1b 3e e3 be b2 be 92 4f 53 be 0f ba 19 3d
       0.1516052 -0.3491126 -0.20635822 0.037530955
0001b0 19 ca a2 be 34 6f 8e 3e 63 3e b7 bd bf 40 1b be
       -0.31794813 0.27819216 -0.08947446 -0.15161417
0001c0 b7 d1 03 be e2 25 0c 3e 89 a5 68 be 0b 15 43 be
       -0.12872969 0.13686326 -0.22719397 -0.19050996
0001d0 41 04 9a be 08 63 98 be 96 93 b3 3c 66 5e f2 3d
       -0.3008137 -0.29763055 0.02192096 0.11834411
0001e0 63 eb 8f be d1 b4 44 3e 91 e2 01 be ae 02 24 3e
       -0.28109273 0.19209601 -0.12684084 0.16016647
0001f0 72 82 9f 3d 86 a3 37 be 3b 3e 05 3e c8 34 2a 3e
       0.07788552 -0.17933473 0.1301202 0.16621697

encoder.fc.bias f4 [8]
000000 a3 66 18 be c4 bd d9 3c 55 01 6e 3d 4d e7 0b 3d
       -0.14882903 0.026579745 0.05810674 0.034156132
000010 ff 33 44 3e a9 d2 aa 3e 5f 56 54 bd 92 e0 aa 3d
       0.1916046 0.33363846 -0.051840182 0.08343615

decoder.attention.attn.weight f4 [8, 24]
000000 46 8d 99 bd 1f 3c d7 3d e7 82 b9 bd c4 34 4e be
       -0.07497649 0.10509514 -0.09058171 -0.20137316
000010 4c 16 d5 3d b1 2f b6 3c ac 2d 3f 3e e7 05 1b bc
       0.104046434 0.022239538 0.18669766 -0.009461856
000020 5b 16 5e 3d 41 d7 8f 3e 9d 10 bb bd b0 3d 67 bd
       0.05422054 0.28093913 -0.09134028 -0.056455314
000030 35 ba 94 be 95 a2 b9 bd f4 eb 8b 3d 46 80 2f 3e
       -0.29048315 -0.09064213 0.06832114 0.17138776
000040 5a 9f f8 bd f4 d0 86 3e 96 b6 15 3e f8 15 03 3e
       -0.12139769 0.26331294 0.14620432 0.12801349
000050 6f fa 78 3e 8d 45 34 be 22 f4 2f 3e 07 e3 1e be
       0.24314283 -0.17604657 0.17182973 -0.15516292
000060 5d d3 c2 bd 18 74 08 3e 22 73 5a bc 38 66 4c bd
       -0.095129706 0.13325536 -0.013333114 -0.04990217
000070 89 04 43 3d 5e ba 4e bd 4b 28 8a 3d a0 c2 56 be
       0.047611747 -0.050470702 0.067459665 -0.20972681
000080 cc a3 c9 bb 7f 57 1d 3e 4a 5e 9b be 61 a6 85 be
       -0.0061535593 0.15365408 -0.30345374 -0.261035
000090 33 5e d1 bd 0d 2d a6 bd 72 53 4b be a1 54 9f 3c
       -0.10223045 -0.081140615 -0.1985605 0.019449534
0000a0 4a 91 25 bd ab 95 93 bc 5f bf f7 bd 32 e3 fa 3d
       -0.04042176 -0.018015703 -0.12097048 0.12250365
0000b0 16 c5 0d 3b e9 45 33 be 6f a9 be 3d 0c 1f 9d bd
       0.0021632365 -0.17507137 0.09309661 -0.07671937
0000c0 8e ac 97 3d bf bc 5e 3d 90 13 d1 3d 2a d2 93 bd
       0.07405959 0.05437922 0.102088094 -0.0721782
0000d0 ce 43 85 3c 2b 30 2e be 4f e8 44 bd 88 25 d4 3d
       0.016267683 -0.17010562 -0.04807311 0.10358721
0000e0 de 36 8e 3b 5f 20 ae be 60 ed 1e 3d 9f 0c 2d 3e
       0.004340037 -0.34009072 0.038800597 0.16899346
0000f0 d0 d6 14 3e a9 87 4b bc 32 ff 94 3d 5d 46 37 be
       0.1453507 -0.012422481 0.07275237 -0.17897935
000100 19 9f fd 3c d0 9d 7a 3d 33 41 5b 3c 00 3c 73 be
       0.030959653 0.061185658 0.013382244 -0.23753357
000110 a1 b5 5a 3d 75 80 0f 3e a1 19 04 3b 4f 69 82 3d
       0.05339587 0.14013846 0.0020156878 0.06367742
000120 80 e9 85 38 ad 2d 5e bb 0f 58 83 3e f9 c3 10 3e
       6.385427e-05 -0.0033901737 0.2565312 0.14137258
000130 cc 73 94 3c cf 4d 01 3d 53 af 84 be e5 f9 37 3e
       0.018121623 0.031568345 -0.25915012 0.17966421
000140 b0 1e 0f 3e 42 51 4b be 66 aa 8b 3e 46 75 c6 bb
       0.1397655 -0.19855216 0.2727844 -0.0060564606
000150 b3 c4 1b 3c 74 a2 61 be fd 9f ba 3d 3b f3 df bd
       0.009507346 -0.22034627 0.091125466 -0.109350644
000160 59 5a e6 3d a3 04 63 bd 91 8c 9a bd ce f8 88 be
       0.11247701 -0.055424344 -0.07546342 -0.26752323
000170 83 d8 58 be a6 8b 6f 3e c3 59 91 be 0c 07 a3 3d
       -0.21176343 0.23393115 -0.28388795 0.079603285
000180 a8 4d fe 3b eb 72 03 be 30 f2 20 3c 6c 1d 43 3e
       0.007760722 -0.12836806 0.009823367 0.19054192
000190 7d 65 04 be 2e a6 3c be 3d 3e 83 be b4 a4 53 3d
       -0.1292934 -0.18422768 -0.25633422 0.051670745
0001a0 fe ba 89 3d bf 29 e6 bd 88 c2 52 3e 90 c9 00 3e
       0.06725119 -0.11238431 0.2058202 0.1257689
0001b0 16 51 18 3e cc 1f 93 bd 55 03 34 3d f6 2f 01 3e
       0.14874682 -0.07183799 0.04394849 0.12615952
0001c0 69 24 87 3e 8c 72 a9 be 2d c4 16 3e b8 1b c9 bc
       0.26394966 -0.33095205 0.14723273 -0.02454935
0001d0 32 29 39 3c 21 6c 3b 3d 81 88 4f be ae 69 6f 3e
       0.011301326 0.045757417 -0.20266916 0.23380157
0001e0 ed 71 f1 bd 23 ea 49 3e 34 e8 3a be 86 63 12 bd
       -0.11789308 0.19718222 -0.18252641 -0.035739444
0001f0 b6 3b 38 3d dd e6 0d 3e 51 20 29 bc bf ea fb bd
       0.04497882 0.13857599 -0.010322646 -0.12300634
000200 eb d2 0c bd 59 83 90 3e c2 57 b3 be a0 91 1e 3d
       -0.034380835 0.2822521 -0.3502789 0.038713098
000210 2a 1f 14 be c0 97 50 bd 6b 71 cc bd c7 9d 08 be
       -0.14465013 -0.05092597 -0.0998257 -0.13341437
000220 3f 23 2c 3c 1c ab 69 3e c8 9a b4 bc 05 e9 97 3e
       0.01050645 0.2281918 -0.022046462 0.29669967
000230 de c9 3e 3e a5 e9 0e be 36 1b bd bd 38 d2 66 be
       0.18631694 -0.13956316 -0.09233706 -0.2254113
000240 57 11 cf bb ee 07 84 ba 8a 6f 3c 3e 98 e3 47 3d
       -0.0063192057 -0.0010073164 0.18401924 0.048801035
000250 c0 ef 14 be 80 0d 14 be 73 7b 60 be ad cb c8 3d
       -0.14544582 -0.14458275 -0.21922092 0.09804473
000260 34 7f 41 3d b8 8d ae be 8b 8a c6 3e 1b 5e 15 bd
       0.04724045 -0.34092498 0.38777575 -0.0364667
000270 20 0a 1d 3e 61 ee 67 bc 88 f3 77 3e a9 89 21 be
       0.15335894 -0.014155955 0.24213994 -0.1577517
000280 bb fe 3d 3d 05 fb 49 be 8a be b2 bd b0 61 1b be
       0.046385508 -0.19724663 -0.08727749 -0.15173984
000290 c3 bf a8 be 7a 9e 30 3d 0a ac 3f 3d 96 22 89 3e
       -0.32958803 0.043119885 0.04679493 0.267842
0002a0 4d 6e b8 3d 3b 35 af 3c e0 b8 6a bd 52 95 7c bb
       0.09005413 0.021387687 -0.057305217 -0.003854115
0002b0 e9 4e 20 3e c9 7a 2a 3d 38 e5 a3 3d 27 86 02 bd
       0.15655102 0.041621003 0.080027044 -0.03186622
0002c0 45 fc 85 bd 47 1f 96 3d 10 33 8a bd 32 60 9a be
       -0.06542257 0.073301844 -0.06748021 -0.30151516
0002d0 74 78 8f be 94 21 cf 3d ff a2 38 3d f2 4c 09 3e
       -0.28021586 0.101138264 0.04507732 0.13408259
0002e0 eb 2b 94 bc 2e 00 ce 3b a2 e5 d9 3d 1a 4a 9a 3e
       -0.018087348 0.0062866425 0.10639502 0.3013466
0002f0 5b fb 99 3e 44 7a 4e 3d 42 3a 86 bc ec 7d d6 3b
       0.30074582 0.05040957 -0.016385201 0.006545773

decoder.attention.attn.bias f4 [8]
000000 ef 97 0c 3e 24 15 36 3e 90 83 bc 3c 6b f3 39 3d
       0.13729833 0.17781502 0.023011953 0.045398157
000010 9f 6b ac 3c 7f 25 4a 3e 78 a9 2c be 8b 18 29 3e
       0.021047411 0.19740866 -0.16861522 0.16513269

decoder.attention.v.weight f4 [1, 8]
000000 aa 91 bf be bc 16 da be d3 fa c5 3e 7d 4b 9a 3e
       -0.3741582 -0.4259547 0.38667926 0.30135718
000010 fc 48 ab 3e 8e bc d8 be e8 5e de 3e 47 b1 03 bf
       0.3345412 -0.42331356 0.43431783 -0.5144238

decoder.embedding.weight f4 [2034, 4]
000000 68 88 c1 3f e6 dd 6c bf d4 dd a2 bf 87 cf cf 3d
       1.5119753 -0.9252609 -1.2723947 0.101470046
000010 9a 92 22 3f 56 ea 83 be 53 91 37 38 4c b8 ac be
       0.63504946 -0.25764722 4.3765944e-05 -0.33734357
000020 eb ce 2e be 09 73 a3 be 32 0c 15 bf 83 7d 29 be
       -0.1707112 -0.31923702 -0.58221734 -0.16551785
000030 c8 28 a3 be aa e8 cc be 2e e1 36 3f 9e cd 8a bf
       -0.3186705 -0.4002126 0.71437347 -1.0843999
000040 43 3e 16 3f 13 c8 fa be 34 b9 a2 bd 0e 81 2c 3f
       0.58688754 -0.4898077 -0.07945481 0.6738442
000050 e0 8e 55 bf 75 2a db bf 9e 73 ee 3e 87 a9 94 3e
       -0.83421135 -1.7122332 0.46572584 0.2903559
000060 5b 24 92 3f f1 58 85 3d cd fb 97 3f 99 2e 43 3d
       1.1417345 0.06511105 1.1873719 0.04765186
000070 b8 05 e2 bf bd d6 83 3e 8f 84 9c bf ce a1 90 bd
       -1.7657995 0.2574977 -1.2227954 -0.07062112
000080 99 16 f2 bf 71 d8 af 3d 5a a1 b0 bf 97 58 9b 3f
       -1.8913146 0.08586205 -1.379924 1.213641
000090 48 08 76 bf 31 68 99 bf 47 2c e4 bf d7 ba 32 be
       -0.96106386 -1.1984922 -1.7826012 -0.17454086
0000a0 dc ee 03 3f da d9 e3 3e 33 42 e1 bf ed d3 ab bf
       0.51536345 0.44502145 -1.7598327 -1.342405
0000b0 15 a8 1b be f5 18 8c bd 03 b5 bf 3f 5f 7b 41 3f
       -0.15200837 -0.06840698 1.4977115 0.75578874
0000c0 95 54 79 3f 92 42 25 be 4e c2 93 3f a4 05 25 c0
       0.97394687 -0.16138676 1.1543672 -2.5784693
0000d0 c7 d6 8d bf b8 d2 8c 3f 86 e8 a2 3f e3 23 5e 3f
       -1.108117 1.1001806 1.272721 0.8677351
0000e0 49 76 ae bf b6 93 23 3f 5a 2e 8c 3f 96 95 ff be
       -1.3629848 0.63897264 1.0951645 -0.49918813
0000f0 3f 8a de be 57 ff ac be a5 5a b9 be da 9c af 3e
       -0.43464848 -0.3378856 -0.3620197 0.34299356
000100 70 b6 40 bf 8c 42 cc be 2f 8c 68 bf cf 0d 26 3f
       -0.7527838 -0.3989452 -0.90838903 0.6486482
000110 8e 24 b7 3f 24 31 23 3f c0 57 0c c0 d6 d4 76 bf
       1.4308031 0.6374686 -2.1928558 -0.9641851
000120 2d 5b f3 3f b8 db 3d bf 5c 5f 03 c0 ae 86 24 c0
       1.90122 -0.7416339 -2.0526953 -2.5707202
000130 02 55 0d 3f 01 7c 17 bf d3 29 3c 3f 88 f9 87 3f
       0.55207837 -0.5917359 0.7350132 1.0623026
000140 9e b0 66 3e f1 ec df 3f 48 e9 f3 bf 04 4e 40 3f
       0.22528312 1.7494184 -1.9055567 0.7511904
000150 5a ca 71 be 83 d8 ae be 90 6c d3 bf f8 1a 0b c0
       -0.23612347 -0.3414956 -1.6517506 -2.173521
000160 a3 dc 29 3f 5b 01 f2 bf b6 df 03 be 7a 02 1d be
       0.6635229 -1.8906664 -0.12878308 -0.15332976
000170 73 56 3a bf f1 bf 95 bf cd ec 9a 3f 83 95 5a 3f
       -0.7278816 -1.1699201 1.2103516 0.85384387
000180 a2 0c 54 3f 8e ff 70 3d 56 50 3e bc 25 58 61 3f
       0.82831776 0.058837466 -0.011615833 0.8802512
000190 c9 53 c0 3f 88 9d 73 3f 2a c6 7b bf 43 9f 9e 3f
       1.5025569 0.9516225 -0.9834925 1.2392353
0001a0 82 20 c8 3f e5 b5 8b 3f e8 e3 b1 3e 0f 69 33 be
       1.5634921 1.0914885 0.3474419 -0.17520545
0001b0 f0 f2 95 bf a5 55 4d bf 04 da c6 bf 86 b0 11 40
       -1.1714764 -0.8020881 -1.5535283 2.2763991
0001c0 ea 74 5c 3f 52 2c c0 be c7 fa f5 3f 67 56 a3 bf
       0.86115897 -0.37533814 1.9217156 -1.2760743
0001d0 a2 45 9e 3f 41 6e 80 3f ab 7e e1 3e d0 e3 f1 3e
       1.2365 1.0033647 0.44041952 0.4724412
0001e0 e8 c7 84 3f 0c de 2e 3f 53 70 4e be d8 2e d7 3f
       1.0373507 0.68307567 -0.20160036 1.681117
0001f0 74 6a 67 be e5 cb 89 bf 87 75 c6 be 22 7b 3d 3f
       -0.22599202 -1.0765349 -0.3876154 0.7401601
000200 32 3a 45 3e 0f 99 0a 3f 34 46 b0 bf a6 67 56 bf
       0.19260481 0.541398 -1.3771424 -0.83751905
000210 10 ef e8 3e ac f1 89 bf aa a5 88 3e 21 2a 4f 3f
       0.4549489 -1.0776877 0.26688892 0.8092366
000220 f9 c6 2d bf 43 10 41 bf 24 44 60 3f 0e 19 77 be
       -0.67881733 -0.7541544 0.87603974 -0.24130651
000230 5f f5 99 bf a9 33 f3 3e 1b 0f 7d be 07 97 7f 3f
       -1.2028006 0.4750035 -0.24712794 0.99839824
000240 db 2d 37 bf 4d 4c 9d 3f c6 f9 19 3f c6 53 e1 3f
       -0.71554345 1.228891 0.6014675 1.7603691
000250 22 02 d4 bf 0a 53 0c 3f b7 22 18 3f f4 c2 ca 3e
       -1.6563151 0.5481421 0.5942797 0.39601862
000260 51 0e ee be 11 49 15 3f bc 8e fa be c4 9e 2b 3f
       -0.46495298 0.58314615 -0.48937023 0.6703913
000270 e5 a0 56 bf 16 1b 0b be 6c c9 ac be c3 d0 75 bf
       -0.83839256 -0.13584551 -0.33747423 -0.9602167
000280 31 7c e7 be b0 a7 e9 3e e0 29 37 bd da 40 57 bf
       -0.45211938 0.45635748 -0.04471767 -0.8408333
000290 b9 0e e5 3e 2e 46 2a 3f e7 6f d3 3e 5f f9 aa bc
       0.44737795 0.66513336 0.41296312 -0.020870863
0002a0 6d 85 07 bd 75 81 68 3a 30 ee 1b be b2 26 4e bb
       -0.03308623 0.0008869388 -0.1522758 -0.003145617
0002b0 f3 26 0a 3f a0 7f d3 3f 73 c4 d6 3b 5e 37 a3 bd
       0.5396568 1.6523323 0.0065541803 -0.07969545
0002c0 b2 4b c9 be ab 87 9e 3f 0d 05 00 bd 12 3c 98 bc
       -0.39315563 1.2385153 -0.031254817 -0.018583331
0002d0 b8 b2 f4 3c 38 7f 29 be 23 9b a4 3f a4 6c 88 3f
       0.029870376 -0.16552436 1.2859844 1.0658154
0002e0 67 e6 1f bb 49 9d ac 3e ef d1 82 3f b7 2f 58 3f
       -0.0024398805 0.3371375 1.0220317 0.8444781
0002f0 d9 2e 53 3f 38 61 a8 3e 70 76 90 be fe b1 ab be
       0.8249336 0.32886672 -0.2821536 -0.33534235
000300 dc dc 6e 3d 92 61 ac bf b4 f2 85 bf c5 03 be 3f
       0.058316097 -1.3467276 -1.0464692 1.48449
000310 87 59 ce 3f bc 2d 72 3f 00 8d 5b bf 82 2a 0d 3c
       1.6121072 0.94601035 -0.85762024 0.008616092
000320 e0 5e b5 bc c1 ef cd 3f f3 18 19 3e 1b 60 9f 3d
       -0.022139966 1.6088792 0.14950924 0.077820025
000330 88 36 f5 be 27 b9 45 3f 53 24 a5 3e 04 12 0b 3f
       -0.47893167 0.77235645 0.32254276 0.54324365
000340 65 8c a9 bf 83 53 c3 be 37 9b e4 38 b6 40 0e bc
       -1.324597 -0.38149652 0.00010900798 -0.0086824205
000350 11 a6 18 3f fc fc d2 ba 19 92 89 bf 6a b4 40 bf
       0.596284 -0.0016097124 -1.074771 -0.7527529
000360 b4 16 0a 40 fe 9a 14 bf 9e 45 15 40 10 f4 00 3c
       2.1576357 -0.58049 2.332374 0.007870689
000370 31 f7 50 3f cc f7 10 3e a2 d2 9f be ec c9 a7 3e
       0.81627184 0.14157027 -0.31215388 0.32771242
000380 f6 f3 ab 3e 32 50 38 bb 0e 66 2a 3e 9d 52 54 be
       0.33584565 -0.0028123972 0.16640493 -0.2073464
000390 c0 26 cd 3e ee f0 9c be e3 da 7b 3f d8 ca f7 be
       0.40068626 -0.30652565 0.9838087 -0.48396945
0003a0 87 a8 dc 3f c5 82 86 be 06 ff e5 bf 48 38 0e 3f
       1.723893 -0.26271644 -1.7968452 0.5555463
0003b0 5f 0b 0d bf de 0b 09 bf 19 bb af bf 1d 1a 73 3e
       -0.55095476 -0.5353373 -1.3728973 0.2374043
0003c0 6a 58 c4 bd ca a9 02 c0 80 c8 01 3d 24 36 29 bf
       -0.09587176 -2.041613 0.031685352 -0.6609824
0003d0 d2 b8 8c be 30 a6 8b 3f 8e d6 78 bd 8b 79 13 3e
       -0.27484757 1.0910091 -0.06075149 0.14401834
0003e0 83 02 a0 be 5c d4 b0 bd 89 5c 90 3e f8 18 6c bf
       -0.31251916 -0.08634254 0.281956 -0.922256
0003f0 7a e9 c2 3f ce 76 82 bf 85 dc c4 bf 12 8c 52 3f
       1.5227501 -1.0192506 -1.5379797 0.8224498

decoder.rnn.weight_ih_l0 f4 [24, 20]
000000 db e0 9b 3e 6d ff 35 bd a0 53 7d 3d e6 59 51 bb
       0.3044499 -0.044433046 0.06184733 -0.0031944453
000010 0a 72 4e bd 3e 97 49 3e 93 9f 00 be 74 f9 b7 3e
       -0.050401725 0.196866 -0.12560873 0.35932505
000020 a1 be 8b 3c 5c d6 a4 bb 27 d1 29 3e 81 c5 b9 bd
       0.017058672 -0.0050304364 0.16583692 -0.09070874
000030 f7 18 5b 3e b6 27 a7 3d 63 ba 94 be c6 ca 27 be
       0.21396242 0.08161871 -0.29048452 -0.16385946
000040 b3 d4 96 be 3c cd 77 3c 73 e4 19 3e f2 96 30 3e
       -0.29459152 0.015124615 0.15028553 0.17245081
000050 82 77 0e 3e 29 81 70 be 26 27 24 be 76 a3 3a be
       0.13912776 -0.2348677 -0.16030559 -0.18226418
000060 18 d3 da bb 20 2a 28 3c 6f 05 c8 3e c8 4b c6 3d
       -0.0066779964 0.01026395 0.39066646 0.09682423
000070 3f 7c 6d 3e 8b 61 4c 3e eb d8 19 3e 25 73 39 3d
       0.23191927 0.19959085 0.15024154 0.045275826
000080 c1 67 78 3e 69 c9 03 bd 6d 02 07 3c c5 df 37 bc
       0.24258329 -0.0321745 0.008240324 -0.011222784
000090 97 ec 68 be a8 2e 15 be 82 93 e1 be f2 19 69 3e
       -0.22746502 -0.14568579 -0.44057852 0.22763804
0000a0 c3 48 01 be cf d5 ea 3d 12 e3 08 3d 8c f7 f8 3d
       -0.12625413 0.11466562 0.033419676 0.12156591
0000b0 37 0d de 3c d5 79 c6 bd e0 18 80 3e 8e 09 bf 3a
       0.02710591 -0.09691206 0.25018978 0.0014574991
0000c0 dd 18 91 bd 8d 03 49 3e 7c f6 01 be f5 be 0c 3e
       -0.070848204 0.19630261 -0.12691683 0.1374472
0000d0 ba 31 c0 3d b6 75 e9 bd de 15 16 be 8c d3 66 be
       0.093844846 -0.11399405 -0.14656779 -0.22541636
0000e0 67 3d a5 be fa 3d 3c be 32 e4 30 3e c2 b8 8b 3e
       -0.3227341 -0.18383017 0.1727455 0.27289397
0000f0 4c d1 06 3e 8f 46 83 3e 18 d4 97 be 87 9c 62 3e
       0.13165778 0.2563977 -0.29654002 0.22130023
000100 ab d1 59 3e eb a6 ec bd 9c ff ad 3e 88 c8 d9 3e
       0.21271388 -0.115552746 0.33984077 0.42535806
000110 03 02 1f be 5d af 23 3d 74 b8 d0 3e b4 40 a6 3e
       -0.15528111 0.03996216 0.40765727 0.3247124
000120 2a 16 a8 3d b1 03 8b 3d 78 4a be bc c3 6c b2 3d
       0.082073525 0.067878135 -0.023228869 0.08712151
000130 e8 f0 0a be 26 22 27 bd 3f c1 05 3e 1a b7 18 3e
       -0.13568461 -0.04080405 0.13061999 0.14913598
000140 1a c9 36 be be ef fd 3d cf 8c 8b bc 96 46 85 bc
       -0.17850152 0.12399243 -0.017034916 -0.01626901
000150 69 da 68 be de 6a 98 bd 4a 2e 5a 3e e0 d0 b9 bd
       -0.22739567 -0.07442258 0.2130672 -0.09073043
000160 e2 47 c5 3d 02 c2 d0 bd e2 eb f7 bc 4c 3b 01 3d
       0.09632851 -0.10193254 -0.030263845 0.03155069
000170 5d fc 01 3e 43 8b 53 be 7c b7 58 be 68 74 45 be
       0.12693925 -0.20658593 -0.21163744 -0.19282687
000180 67 25 3a bc 47 96 9b 3d 6c b9 fa bc 1a 0d 92 3e
       -0.0113614565 0.075970225 -0.030605994 0.2852562
000190 8f 98 34 3d b2 63 86 be 67 a7 1b 3e a7 bb 4b 3d
       0.044090804 -0.26247936 0.15200578 0.049739506
0001a0 3a e9 e0 bd 4d f3 28 be 78 67 00 be 05 bb 53 be
       -0.109819844 -0.16499062 -0.1253947 -0.20676811
0001b0 77 96 e1 3d 4c b9 82 3e 3c 7d 1f bc 91 f5 08 bd
       0.11015027 0.25531995 -0.009734448 -0.033437315
0001c0 c2 0f d2 bb e9 45 5a be e7 0c fa bc c3 4c bf bd
       -0.00641057 -0.21315731 -0.03052373 -0.09340813
0001d0 9c 03 73 bd b4 ad b4 3e dd 2a f2 bb 7d e6 d9 3e
       -0.059329614 0.35288775 -0.0073903636 0.4255866
0001e0 a1 5e a9 be 98 82 03 3e fc f8 fd 3d b1 1b 99 be
       -0.3308001 0.12842786 0.124010056 -0.2990394
0001f0 2d 9f a8 bd e3 fb bf be 9b 9b 6d 3e 84 fc b5 bd
       -0.08233485 -0.37496862 0.2320389 -0.08886054
000200 60 64 64 3e 14 5a fa bd 8f 46 c8 3e a5 9d 31 3e
       0.22303915 -0.12224212 0.39116332 0.17345293
000210 c4 01 37 3e f1 e8 02 be a9 3a 8e 3d 5d e6 e9 be
       0.17871767 -0.12784173 0.06944782 -0.45683566
000220 eb 26 ab be 28 76 dc 3e 91 ac 71 3d d1 bc 23 3e
       -0.3342813 0.43058896 0.059002463 0.15989996
000230 70 78 d8 3c f0 17 1d 3e d4 39 84 bd 8a 76 01 3e
       0.026424617 0.15341163 -0.06456342 0.12642875
000240 ea c4 f3 bd 1e f3 00 3e 4c eb 70 3e 25 36 7b bd
       -0.11902793 0.12592742 0.23527259 -0.061330933
000250 6b 6d 28 be 41 ab 16 be 1f 90 bb bd 8e f0 e5 3d
       -0.1644799 -0.14713766 -0.09158348 0.11227523
000260 84 8c a3 3e 28 2e 92 be 22 1b 6b be 63 61 45 3e
       0.31943142 -0.2855084 -0.22959569 0.19275431
000270 62 b8 51 bd 09 7a 3f 3e 1c 7b 58 bd 25 1c 63 3e
       -0.05120123 0.18698896 -0.05285178 0.22178705
000280 58 6a 87 3e ae ab 3a 3e a1 38 60 3e b8 5e 4d be
       0.2644832 0.18229553 0.21896602 -0.20055664
000290 e9 9d 6c be 38 e1 ff bd 67 ca 69 be fa bc ad 3d
       -0.23107113 -0.12494129 -0.22831117 0.0848331
0002a0 fd 26 ab 3d 52 30 c6 bb 2c 90 83 be 82 a6 c1 bd
       0.08357046 -0.0060482407 -0.25695932 -0.09455587
0002b0 16 ed 67 3e 9a 6c 98 bc 58 fe e3 3c e3 19 5e be
       0.22649035 -0.018606473 0.027831241 -0.21689562
0002c0 4f 15 81 be 1b e5 71 be 56 4c 1c be e6 27 1a be
       -0.2521157 -0.23622553 -0.15263495 -0.15054283
0002d0 1e b6 54 3e 58 3a a1 bb ff 42 49 3d 34 0e f4 3d
       0.20772597 -0.004920285 0.049136158 0.119167715
0002e0 d8 a4 34 3e 00 79 65 3e ac 83 59 3e e4 89 8b 3e
       0.17641008 0.22409439 0.21241635 0.2725364
0002f0 d5 82 31 be f7 2e 97 be 7d 56 3d 3e fc 19 24 be
       -0.17335065 -0.2952802 0.18490024 -0.16025537
000300 74 d6 20 3e ca b1 9b 3e b2 ce 58 3c 52 91 06 be
       0.15706807 0.3040908 0.013232874 -0.13141373
000310 3e ce 5d 3e 9a c1 ed 3d ba c0 dd 3d 1b 12 4f 3d
       0.21660706 0.11609192 0.10827775 0.050554376
000320 7b c1 e3 3e dc 49 53 be 7a 11 b1 be 19 48 2d be
       0.4448355 -0.20633644 -0.34583646 -0.16922034
000330 e7 d7 c0 3d d5 ee f2 3d bc 2d a2 be 12 4c 2c be
       0.0941618 0.1186196 -0.31675518 -0.16825894
000340 05 d4 53 be 09 f1 16 be 25 ef 6e be 70 7a 37 3e
       -0.20686348 -0.14740385 -0.23333414 0.179178
000350 83 b7 c2 3d b9 02 cb 3d be 15 53 3e 7b 98 b3 3e
       0.09507658 0.09912629 0.20613763 0.3507727
000360 eb 6e 12 be d2 3d b1 be a1 ba c8 bd 06 78 91 3e
       -0.14300124 -0.34617478 -0.09801222 0.28411883
000370 bf 67 91 3e 3e 4f 34 3e f3 78 55 3e be 25 8b bd
       0.28399464 0.17608353 0.2084692 -0.06794308
000380 2a 31 22 bd 88 3b 06 3e 2c c0 6d 3e a2 fc 0b be
       -0.039597668 0.13108647 0.23217839 -0.1367059
000390 f7 40 82 3d 14 c6 90 3e 89 0b 8d 3d f9 42 82 be
       0.06360047 0.28276122 0.06886966 -0.2544172
0003a0 59 ca 07 be d3 4e 5e 3e ab f6 95 3e 48 ef 6a 3e
       -0.13260783 0.21709757 0.29289755 0.22942841
0003b0 74 92 b8 bd fd 48 a4 3e f2 8f 90 be 27 b1 10 3d
       -0.09012309 0.32086936 -0.28234822 0.035325196
0003c0 7a 73 e1 3d 99 37 5f 3e 72 d7 2e be da cc 63 be
       0.110083535 0.21798553 -0.17074373 -0.22246113
0003d0 b9 84 cf 3c 65 eb 26 be b0 8b 8b 3d a1 3d 9c 3e
       0.025331842 -0.16300733 0.06813753 0.3051577
0003e0 f7 71 07 3d 93 34 1a 3e b5 28 94 bd 85 8e 6e 3e
       0.03306767 0.15059118 -0.07234327 0.23296554
0003f0 39 11 35 be 36 3f 61 3a d4 4e de 3c a2 93 82 3e
       -0.17682351 0.0008592488 0.027137198 0.2550326
